Current File is: Keras_word_trigger_pretrained.py
Model: "model_1"
_________________________________________________________________
Layer (type)                 Output Shape              Param #   
=================================================================
input_1 (InputLayer)         (None, 5511, 101)         0         
_________________________________________________________________
conv1d_1 (Conv1D)            (None, 1375, 196)         297136    
_________________________________________________________________
batch_normalization_1 (Batch (None, 1375, 196)         784       
_________________________________________________________________
activation_1 (Activation)    (None, 1375, 196)         0         
_________________________________________________________________
dropout_1 (Dropout)          (None, 1375, 196)         0         
_________________________________________________________________
gru_1 (GRU)                  (None, 1375, 128)         124800    
_________________________________________________________________
dropout_2 (Dropout)          (None, 1375, 128)         0         
_________________________________________________________________
batch_normalization_2 (Batch (None, 1375, 128)         512       
_________________________________________________________________
gru_2 (GRU)                  (None, 1375, 128)         98688     
_________________________________________________________________
dropout_3 (Dropout)          (None, 1375, 128)         0         
_________________________________________________________________
batch_normalization_3 (Batch (None, 1375, 128)         512       
_________________________________________________________________
dropout_4 (Dropout)          (None, 1375, 128)         0         
_________________________________________________________________
time_distributed_1 (TimeDist (None, 1375, 1)           129       
=================================================================
Total params: 522,561
Trainable params: 521,657
Non-trainable params: 904
_________________________________________________________________
None
Epoch 1/10

 5/26 [====>.........................] - ETA: 17s - loss: 0.0718 - acc: 0.9716
10/26 [==========>...................] - ETA: 10s - loss: 0.0744 - acc: 0.9728
15/26 [================>.............] - ETA: 6s - loss: 0.0591 - acc: 0.9789 
…
